                 from  n    params  module                                  arguments
  0                -1  1      3190  models.common.Conv                      [3, 29, 6, 2, 2]
  1                -1  1     16569  models.common.Conv                      [29, 63, 3, 2]
  2                -1  1     17318  models.pruned_common.C3Pruned           [63, 32, 26, 53, [[32, 32, 32]], 1, 128]
  3                -1  1     33530  models.common.Conv                      [53, 70, 3, 2]
  4                -1  2     91726  models.pruned_common.C3Pruned           [70, 64, 12, 49, [[64, 64, 64], [64, 64, 64]], 2, 256]
  5                -1  1     14176  models.common.Conv                      [49, 32, 3, 2]
  6                -1  3    508468  models.pruned_common.C3Pruned           [32, 128, 128, 26, [[128, 128, 128], [128, 128, 128], [128, 128, 128]], 3, 512]
  7                -1  1       472  models.common.Conv                      [26, 2, 3, 2]
  8                -1  1    662544  models.pruned_common.C3Pruned           [2, 256, 256, 8, [[256, 256, 256]], 1, 1024]
  9                -1  1       116  models.pruned_common.SPPFPruned         [8, 5, 3, 5]
 10                -1  1        25  models.common.Conv                      [3, 5, 1, 1]
 11                -1  1         0  torch.nn.modules.upsampling.Upsample    [None, 2, 'nearest']
 12           [-1, 6]  1         0  models.common.Concat                    [1]
 13                -1  1      3733  models.pruned_common.C3Pruned           [31, 17, 9, 23, [[17, 12, 18]], 1, False]
 14                -1  1       575  models.common.Conv                      [23, 23, 1, 1]
 15                -1  1         0  torch.nn.modules.upsampling.Upsample    [None, 2, 'nearest']
 16           [-1, 4]  1         0  models.common.Concat                    [1]
 17                -1  1     30084  models.pruned_common.C3Pruned           [72, 32, 19, 122, [[32, 32, 55]], 1, False]
 18                -1  1     34100  models.common.Conv                      [122, 31, 3, 2]
 19          [-1, 14]  1         0  models.common.Concat                    [1]
 20                -1  1     34605  models.pruned_common.C3Pruned           [54, 26, 18, 186, [[26, 31, 59]], 1, False]
 21                -1  1     68716  models.common.Conv                      [186, 41, 3, 2]
 22          [-1, 10]  1         0  models.common.Concat                    [1]
 23                -1  1     36484  models.pruned_common.C3Pruned           [46, 21, 31, 209, [[21, 22, 65]], 1, False]
 24      [17, 20, 23]  1      9360  models.yolo.Detect                      [1, [[10, 13, 16, 30, 33, 23], [30, 61, 62, 45, 59, 119], [116, 90, 156, 198, 373, 326]], [122, 186, 209]]
Transferred 348/349 items from pruned_model.pt
Scaled weight_decay = 0.0005
[34m[1moptimizer:[39m[22m AdamW with parameter groups 57 weight, 60 weight (no decay), 60 bias
…
